detection/Det.tflite (tflite, 721944 bytes, 100 tensors)

Add_49;convolution_32;Const_102 f4 [60]
0	0xbe4c21ec	-0.19934815
1	0xbe20b21b	-0.15692942
2	0x3d295034	0.041336253
3	0xbe3ee2c7	-0.18641196
4	0xbdb8c522	-0.09021975
5	0xbcb69cf2	-0.022291634
6	0xbdf53851	-0.11973632
7	0x3e2d06aa	0.16897073
8	0x3d6e2a69	0.058145914
9	0x3e068438	0.13136375
10	0xbdbca850	-0.092117906
11	0xbe2dc67e	-0.1697025
12	0x3d6e022e	0.058107547
13	0xbdd908da	-0.105973914
14	0x3b27c1fe	0.0025597806
15	0x3ca58961	0.020207109
16	0xbe2ba9ff	-0.16764067
17	0x3e0d4bda	0.13798466
18	0xbb874ec7	-0.004129264
19	0x3e01c040	0.12670994
20	0xbd688418	-0.0567666
21	0xbde22a7f	-0.11043262
22	0x3e1c96ab	0.1529185
23	0xbe053161	-0.13007118
24	0x3c0e0e6d	0.008670432
25	0xbc5f7f4a	-0.013641188
26	0xbdc16915	-0.09443871
27	0x3dc688e9	0.09694082
28	0x3d9648b2	0.07338084
29	0x3e4d4fdf	0.2005
30	0xbe2227f0	-0.15835547
31	0xbde028ce	-0.10945283
32	0x3d80bb09	0.06285674
33	0xbd929aca	-0.0715843
34	0x3d531c5f	0.05154073
35	0x3dc31556	0.09525554
36	0xbd325db9	-0.043546412
37	0x3e48bcda	0.19603291
38	0xbbafe6fd	-0.005368112
39	0x3e1f37ff	0.15548705
40	0xbdb9ea6c	-0.090779155
41	0xbe2d8762	-0.16946176
42	0x3ca73c86	0.020414602
43	0x3ba53183	0.0050413026
44	0xbd13a314	-0.036044195
45	0x3db050da	0.08609171
46	0xbdf6346e	-0.12021719
47	0x3d29192e	0.04128378
48	0x3dbe2a60	0.09285426
49	0x3cc2ebcf	0.023794083
50	0xbd4101d1	-0.047120873
51	0xbd24701a	-0.04014597
52	0x3e069376	0.1314219
53	0xbdc2b573	-0.09507265
54	0x3d2b1a20	0.04177296
55	0x3e003fc2	0.12524322
56	0x39bb142e	0.00035682454
57	0x3e1d4dd1	0.15361716
58	0x3d8921c5	0.06695894
59	0x3d5fc004	0.05462648

Add_48;convolution_9;depthwise_16;Const_100 f4 [96]
0	0xbe90fd2e	-0.2831816
1	0xbe95846e	-0.29202598
2	0xbe726463	-0.23671107
3	0x3e791c6a	0.24327245
4	0x3e1c9f35	0.15295108
5	0xbd89d4b9	-0.06730027
6	0x3e845c4a	0.2585166
7	0xbe825f7f	-0.25463483
8	0x3e81ec6f	0.25375697
9	0x3daf911b	0.085725985
10	0x3d9ccf38	0.07656711
11	0xbdb77282	-0.089573875
12	0x3b99e823	0.0046968623
13	0x3d064aeb	0.03278629
14	0x800000f1	-3.38e-43
15	0x3ec6f14a	0.38855964
16	0xbe133ed7	-0.1437944
17	0x3cb669fe	0.022267338
18	0xbe42fb77	-0.19041239
19	0x3e716908	0.23575222
20	0x3ef2e317	0.4743888
21	0x3edf4275	0.4360539
22	0x3de176f9	0.1100902
23	0xbd499bd8	-0.04922089
24	0x3f1890ec	0.59596133
25	0xbe9cd8bd	-0.30634108
26	0xbd926826	-0.07148771
27	0xbe1eb77d	-0.15499683
28	0x3eeaa7b8	0.45831084
29	0xbcfd3cda	-0.030912805
30	0xbe4886ee	-0.19582722
31	0x3e1612ed	0.14655657
32	0x3e1b59dd	0.15170999
33	0x3e8be5b6	0.27323693
34	0xbafa8a2c	-0.0019114665
35	0xbdbf29fc	-0.0933418
36	0x3eaff781	0.34368518
37	0xbe55922f	-0.20856546
38	0x3eb6f11f	0.35730836
39	0xbe09c1bc	-0.1345281
40	0xbe9fd1fd	-0.31214896
41	0x3ee7200c	0.45141637
42	0x800003c8	-1.356e-42
43	0x3e9bc254	0.30421698
44	0x3de26520	0.11054444
45	0xbeb52f79	-0.3538778
46	0xbe4762d1	-0.19471289
47	0xbe504e11	-0.2034228
48	0x3e158f7e	0.14605519
49	0xbde628c9	-0.11238248
50	0xbde3ccdc	-0.11123058
51	0xbe3de34e	-0.18543741
52	0x3db37a64	0.087635785
53	0xbda59418	-0.08084887
54	0xbcb6b9ca	-0.022305388
55	0xbea2fc3e	-0.3183307
56	0x3cb7e833	0.022449588
57	0x3e30247e	0.1720142
58	0x3e980f3b	0.2969912
59	0x3d8d374e	0.06895314
60	0x3d49ee20	0.04929936
61	0x3d2eb482	0.042652614
62	0xbe88ea82	-0.26741415
63	0x3e2f956b	0.17146842
64	0x3c956fc3	0.018241769
65	0x3b20ef22	0.0024556597
66	0x3dcb2a4c	0.09920177
67	0x80000354	-1.194e-42
68	0x3e87f08d	0.26550713
69	0xbc1e868d	-0.009675634
70	0x3e29d11e	0.16583678
71	0x3e3bb228	0.1832968
72	0xbe01908c	-0.12652797
73	0x3d9d6ecf	0.07687151
74	0x3c8e80c1	0.017395379
75	0x3cfea532	0.03108463
76	0xbe66c41c	-0.22535747
77	0x3d6c2450	0.057651818
78	0x3e370f7f	0.17877005
79	0xbe69d421	-0.22834827
80	0x3e21b546	0.15791807
81	0xbddf023d	-0.10889099
82	0x3d40f894	0.047112063
83	0x8000009f	-2.23e-43
84	0xbe40cf80	-0.18829155
85	0xbe246c4b	-0.16056935
86	0x3d6d5e6e	0.057951383
87	0x3d126412	0.035739966
88	0x3e1da18b	0.15393655
89	0x3e775363	0.24152903
90	0xbc81b03f	-0.015831111
91	0x3e663edb	0.22484915
92	0xbd736c6a	-0.059429564
93	0xbe710bee	-0.23539707
94	0xbd882198	-0.066470325
95	0xbdca6183	-0.0988188

Add_47;convolution_31;Const_98 f4 [12]
0	0x3b73f06f	0.0037222167
1	0xbd9a9258	-0.07547444
2	0xbba5efb8	-0.005063977
3	0xbe008b50	-0.12553144
4	0x3be01864	0.006838845
5	0xbda0c60d	-0.07850275
6	0x3d3ad1b9	0.045610163
7	0xbdf887c1	-0.12135268
8	0xbd318204	-0.043336883
9	0xbdfed5a9	-0.12443096
10	0x3e02d24e	0.12775537
11	0xbe267658	-0.16256082

Add_46;convolution_9;depthwise_15;Const_96 f4 [96]
0	0xbe3cf2bc	-0.18451971
1	0xbe28a22c	-0.16468114
2	0x3ba5d7b7	0.0050611156
3	0x3e43a18b	0.19104593
4	0xbb8b0c15	-0.0042433836
5	0x3e762c3d	0.24040313
6	0x3d4846c4	0.048895612
7	0x3e40d3c6	0.18830785
8	0x3ee55d28	0.44797635
9	0x3dd55e67	0.104183964
10	0x3e1c663d	0.15273376
11	0x3b894668	0.0041893013
12	0xbb3b71c2	-0.002860174
13	0xbe500533	-0.20314483
14	0xbe3ea8fd	-0.18619151
15	0x3e3ea22f	0.18616556
16	0x3db986e3	0.09058931
17	0xb7237181	-9.741984e-06
18	0xbe5944ab	-0.21217601
19	0x3e2bc900	0.16775894
20	0xbdb38491	-0.087655194
21	0xbddca013	-0.10772719
22	0x3d06fbaa	0.03295485
23	0xbce7366c	-0.028224193
24	0x3e32bc61	0.17454673
25	0x3e7d65c6	0.24745855
26	0xbe45d649	-0.19320025
27	0x3e196807	0.1498109
28	0xbce81bdd	-0.028333599
29	0xbe38db8a	-0.18052498
30	0x3ec1e8fb	0.37873062
31	0x3e05bae1	0.1305957
32	0x3e5cdf7f	0.21569632
33	0x3e84cfdf	0.25939843
34	0xbe5ab897	-0.21359478
35	0x3e81a883	0.25323877
36	0x3e91e5e9	0.2849572
37	0xbdde9ca1	-0.10869718
38	0x3de3ed3c	0.11129233
39	0x3e3bda7e	0.18345067
40	0x3b4f7abf	0.0031658856
41	0xbe8b5701	-0.27214816
42	0x3e61ea60	0.22062063
43	0x3ddd247d	0.10797975
44	0xbd316c20	-0.043316007
45	0x3e68dc58	0.22740304
46	0xbcbbbf1b	-0.022918275
47	0x3ba39512	0.004992136
48	0x3d89af52	0.06722893
49	0x3eb70f57	0.3575389
50	0xbe73b96d	-0.23801203
51	0xbde23054	-0.11044374
52	0xbd08b76e	-0.033378057
53	0xbd0f2ad2	-0.034952946
54	0x3e03e3e1	0.12879898
55	0x3e54ab8c	0.20768565
56	0xbe631aec	-0.22178239
57	0x3e423d76	0.18968758
58	0xbe4331ea	-0.1906201
59	0x3d47cb09	0.048777614
60	0xbdfe07e6	-0.1240385
61	0x3e1f9ffc	0.15588373
62	0x3e8f0a02	0.27937323
63	0xbdd95679	-0.106121965
64	0xbe84b6fa	-0.2592085
65	0x3df1fb87	0.11815553
66	0x3e3c76c9	0.18404688
67	0xbda70c89	-0.08156688
68	0xbe222175	-0.15833075
69	0x3c697c5d	0.014250842
70	0x3e243c3a	0.160386
71	0x3ed1f266	0.41005248
72	0x3e5d52a5	0.21613558
73	0xbd18c3f9	-0.03729627
74	0xbd0005d5	-0.03125556
75	0x39ba0f79	0.00035488213
76	0x3c8a5267	0.016884996
77	0x3c12b259	0.008953654
78	0xbeb57e80	-0.35448074
79	0x3e048b60	0.12943792
80	0x3e3ce855	0.18448003
81	0x3e164386	0.14674196
82	0x3da1e552	0.079050675
83	0x3e66640f	0.22499107
84	0xbcc06257	-0.023484392
85	0x3e6ef9f5	0.23337539
86	0x3d4c2247	0.049837377
87	0x3ece07e3	0.40240392
88	0xbe9fe36f	-0.31228206
89	0x3d805076	0.06265347
90	0x3dcf3d56	0.10119121
91	0xbd42492f	-0.047433075
92	0x3e809466	0.2511322
93	0xbe8555a4	-0.260419
94	0x3e050cd1	0.1299317
95	0x3e999a4b	0.3000053

Add_45;convolution;convolution_30;Const_94 f4 [24]
0	0x3d5c8383	0.053836357
1	0xbd4b8bb3	-0.049693774
2	0xbbe28a61	-0.0069134687
3	0x3df01a05	0.11723713
4	0x3d735842	0.05941034
5	0x3cdd86b4	0.02704177
6	0xbd87ab51	-0.06624473
7	0xba74d01e	-0.0009338873
8	0x3ba88c4c	0.005143678
9	0x3d00a202	0.031404503
10	0xbd989a2c	-0.07451281
11	0x3c5e379b	0.013563062
12	0x3ca3a07a	0.019973982
13	0x3b89a136	0.004200126
14	0xbdc10e51	-0.09426559
15	0x3c7cca1c	0.015429046
16	0x3b9e88e1	0.0048380946
17	0xbdb22c4e	-0.08699857
18	0x3d41fbf7	0.047359433
19	0xbdccf149	-0.10006959
20	0xbd95bdae	-0.07311569
21	0xbddb0b47	-0.1069551
22	0xbdb81273	-0.08987894
23	0xbdbd2bc2	-0.09236862

Add_44;convolution_9;depthwise_14;Const_92 f4 [96]
0	0xbb30456b	-0.0026896845
1	0x3d9a02e3	0.07520082
2	0xbe04e18c	-0.12976664
3	0x3e248265	0.16065367
4	0x3e66b266	0.22528991
5	0xbe314292	-0.17310551
6	0x3e4770bf	0.19476603
7	0x3db5fb05	0.08885769
8	0xbe7bc6f0	-0.24587607
9	0x3e29130d	0.16511174
10	0xbdff6d78	-0.124720514
11	0xbca0e275	-0.019639233
12	0xbbbde182	-0.005794705
13	0xbe3d381e	-0.18478438
14	0xbe12b3c8	-0.14326394
15	0x3e4cc074	0.1999529
16	0x3ca7e2ff	0.020493982
17	0xbcbe0207	-0.023194326
18	0x3e7814d6	0.24226698
19	0x3e55c348	0.20875275
20	0xbcce6926	-0.025196623
21	0x3d527f4c	0.05139093
22	0x3d491e95	0.04910143
23	0xbda9de48	-0.0829435
24	0x800000ef	-3.35e-43
25	0x3e503b75	0.20335181
26	0xbc1f6b80	-0.00973022
27	0x3dae4026	0.08508329
28	0x3e16af49	0.14715303
29	0xbe16ef47	-0.14739715
30	0x3f027404	0.50958276
31	0x3dc7f07e	0.09762667
32	0xbe609c40	-0.21934605
33	0xbe826706	-0.25469226
34	0xbda63998	-0.08116454
35	0x3e4891a9	0.19586815
36	0xbdef3c13	-0.1168138
37	0xbe08f528	-0.1337477
38	0x3e88f137	0.26746532
39	0xbda752f9	-0.08170123
40	0x3c34ea1a	0.011042142
41	0xbe554096	-0.20825419
42	0xbdcb4d1e	-0.09926818
43	0x3d3e5971	0.046472017
44	0xbe36a074	-0.17834646
45	0xbe00f4c4	-0.1259337
46	0x3ce8ab8d	0.028402114
47	0xbda0bb29	-0.07848198
48	0xbd91e11b	-0.071230136
49	0x3dc6c959	0.09706373
50	0x3e0d9894	0.13827735
51	0xbd6031bc	-0.05473493
52	0x3bcf67fa	0.0063295336
53	0x3dcf404c	0.101196855
54	0xbe841d14	-0.25803435
55	0x3e70484f	0.23465084
56	0x3e54e607	0.20790873
57	0x3e6b61d5	0.22986539
58	0x3e693622	0.22774556
59	0xbdd3ea4f	-0.10347425
60	0x3bcd1cc3	0.006259532
61	0x3e98fd40	0.29880714
62	0x3d617912	0.055047102
63	0x8000027c	-8.91e-43
64	0x3deb5412	0.114906445
65	0x3e1661c5	0.14685734
66	0x3e9c93ec	0.30581605
67	0xbc29490c	-0.010332357
68	0x3de5b7e6	0.112167165
69	0x3c67db05	0.014151339
70	0x3e49503d	0.19659515
71	0xbe5cc0f4	-0.21557981
72	0xbc13d073	-0.009021866
73	0x3da510c9	0.08059842
74	0x3e5a2e39	0.21306695
75	0xbd7c4250	-0.061586678
76	0xbd5cab85	-0.05387451
77	0x3e833d78	0.25632834
78	0x3d7d5ee4	0.061858073
79	0xbe539455	-0.20662053
80	0xbd63bf36	-0.055602275
81	0x3dae2ad9	0.08504266
82	0xbdeb4db3	-0.11489429
83	0xbcc25dec	-0.023726426
84	0xbe2312d7	-0.15925156
85	0xbd5fa2eb	-0.05459873
86	0x3da2b7c8	0.0794521
87	0xbe42b180	-0.19013023
88	0x3e5df41d	0.21675153
89	0xbe49c0f2	-0.19702509
90	0x3b7ed35a	0.00388833
91	0xbdf9c24b	-0.121952616
92	0xbe1832f8	-0.14863193
93	0x3e093cbc	0.13402075
94	0x3dee56de	0.11637662
95	0x3c88e53f	0.016710876

Add_37;convolution_9;convolution_26;Const_78 f4 [96]
0	0x3f32337e	0.6960982
1	0x3f3c02b1	0.73441607
2	0x3f695941	0.91151816
3	0xbea990ea	-0.33118373
4	0x3eb431fd	0.35194388
5	0xbddff06a	-0.10934527
6	0xbe9a8955	-0.301829
7	0xbf73d044	-0.95239663
8	0x400f41b5	2.2383854
9	0xbf893d92	-1.0721915
10	0x3ead517c	0.3385123
11	0xbe4da09f	-0.20080803
12	0xbf8edec3	-1.1161731
13	0x3f72994c	0.9476516
14	0x3f252e42	0.6452371
15	0x3ceb0ef0	0.028693646
16	0xbfeac840	-1.8342361
17	0xbd2fdd2e	-0.042935543
18	0x3f514075	0.8173898
19	0xbc79ce58	-0.01524695
20	0x3e9990e0	0.29993343
21	0x3fd9dc89	1.7020427
22	0x3f4724e0	0.7779064
23	0x3f3f5d27	0.74751514
24	0x3f2441b7	0.6416277
25	0xbf20eaed	-0.6285847
26	0x3ff968bb	1.9485086
27	0x3f8a65f0	1.0812359
28	0x3eaaf3b9	0.3338907
29	0x3ea69a6e	0.32539696
30	0xbd0ccbb6	-0.03437396
31	0x3eb604bd	0.3555049
32	0x3eeb6305	0.45973983
33	0x3f3cc79d	0.73742086
34	0xbb327780	-0.0027231872
35	0xbe1dc200	-0.15406036
36	0x3ecbbe0a	0.39793426
37	0xbf4737e1	-0.7781964
38	0x40248b43	2.5709999
39	0x3ef3071a	0.47466356
40	0x3edcf05b	0.43152127
41	0xbf4bcbc7	-0.79607815
42	0x4024c92e	2.574779
43	0x3e4a54c5	0.197589
44	0x3ea83b98	0.32857966
45	0x3f69a757	0.91270965
46	0x400752f0	2.114437
47	0x3d04deae	0.032438926
48	0x3e1e735c	0.15473694
49	0x3e49d158	0.19708765
50	0xbec23b9e	-0.3793611
51	0xbf350711	-0.7071391
52	0x3ff21370	1.8912182
53	0x3f02e726	0.51133955
54	0x3da50502	0.08057596
55	0xbe6f1807	-0.2334901
56	0x3fdbc9e1	1.7170984
57	0x3ee67a20	0.4501505
58	0xc010570b	-2.2553127
59	0xbe90d88b	-0.2829021
60	0x3fb69795	1.4265009
61	0x3d80cac8	0.062886775
62	0xbe9b960c	-0.30387914
63	0x3f80ce7f	1.0063018
64	0x3fbc7ce2	1.4725611
65	0x3da81000	0.08206177
66	0x3f9213e9	1.1412326
67	0x3e81d99c	0.25361335
68	0x3e033b1d	0.12815519
69	0xbeb98386	-0.36233157
70	0x3f980b61	1.1878473
71	0xbf846a2d	-1.0344902
72	0xbdaea4f4	-0.08527556
73	0x3e96d41f	0.2945871
74	0xbe612653	-0.21987276
75	0x3f7ddb12	0.991624
76	0x3eb0ff0f	0.34569594
77	0x3ef06fa6	0.4696018
78	0xbe47295e	-0.19449374
79	0x3f1bec42	0.60907376
80	0x3fd242b9	1.6426612
81	0xbde7e7f8	-0.113235414
82	0x3fa967d4	1.3234811
83	0xbf1fc1c9	-0.6240507
84	0x3e8d831e	0.27639097
85	0x3f5733c6	0.84063375
86	0xbe0a625e	-0.13514087
87	0x3efb95bb	0.49137673
88	0xbf18a4ff	-0.59626764
89	0xbd95d29d	-0.07315562
90	0xbc035b70	-0.008017406
91	0x3f355ac0	0.708416
92	0x3f3b6934	0.732074
93	0xbda97ab7	-0.08275359
94	0x3f98c893	1.193621
95	0x3ef234c9	0.47305897

Add_36;convolution;convolution_25;Const_76 f4 [24]
0	0x3fb59a2e	1.4187677
1	0x3f546568	0.82967234
2	0x3ec3915e	0.38196844
3	0x3fadae62	1.3568842
4	0x3fabc006	1.3417976
5	0x3dc2a793	0.095046185
6	0x3fc057a1	1.5026742
7	0x3ea033a4	0.312894
8	0x3f8a5cfb	1.0809625
9	0x40051ce4	2.0798883
10	0x3fcfdd21	1.6239358
11	0x400be025	2.1855557
12	0x3f7bec88	0.98407793
13	0xc00807bc	-2.125472
14	0x3f49266f	0.7857427
15	0x3f8a429d	1.0801579
16	0x3fa0bae6	1.2557037
17	0x3fac589e	1.3464544
18	0x3fc3a586	1.5284889
19	0x4021a671	2.5257838
20	0xbf8bd30c	-1.0923781
21	0x3f2e7149	0.6814161
22	0x3f6c7659	0.92368084
23	0xbf52d284	-0.8235247

Add_35;convolution;convolution_24;Const_74 f4 [24]
0	0xbebd2e06	-0.36949176
1	0x3f53da36	0.8275484
2	0x3b223f80	0.0024757087
3	0xbe9c5c06	-0.30538958
4	0xbfba7928	-1.4568224
5	0x3fbe688f	1.4875659
6	0x3f6aab7a	0.916679
7	0xbf0fa6ad	-0.561137
8	0xbf66d8cc	-0.90174556
9	0x3f8d2e12	1.1029685
10	0x3caf2fca	0.021385092
11	0x3e256796	0.16152796
12	0x3e494a63	0.19657283
13	0x3fd3b0a4	1.6538281
14	0x3fd05a07	1.6277474
15	0xbf7fbf6a	-0.9990145
16	0x3f70b1ac	0.94021106
17	0xbe422401	-0.18959047
18	0x3f76b618	0.96371603
19	0x3f8258f8	1.0183401
20	0x3cd29a48	0.025708333
21	0x3ebe200a	0.3713382
22	0x3ca49bcf	0.020093827
23	0x3dc21cc5	0.094781436

Add_34;convolution_9;depthwise_10;Const_72 f4 [96]
0	0xbf05db70	-0.5228796
1	0xbe374b98	-0.1789993
2	0xbef4a6fc	-0.4778365
3	0xbf61b788	-0.8817067
4	0xbee207e0	-0.44146633
5	0xbf0be992	-0.54653275
6	0x3e69bfa0	0.22827005
7	0x3ee37483	0.4442483
8	0x3ee03653	0.43791446
9	0xbe198cb8	-0.14995086
10	0x3de1efaa	0.110320404
11	0xbef99f3e	-0.48754305
12	0x3fc0d771	1.5065747
13	0xbef3f644	-0.47648823
14	0xbf81a229	-1.0127612
15	0xbfa4175d	-1.281963
16	0x3f3ffaa7	0.7499184
17	0x3f21426f	0.62991995
18	0xbed09cbd	-0.40744582
19	0x3f7a01c0	0.9765892
20	0xbef79c71	-0.48361543
21	0xbf947350	-1.159769
22	0xbf267696	-0.650247
23	0x3f6c6850	0.9234667
24	0x3f3e6ada	0.7438179
25	0x3ea733a0	0.32656574
26	0xbe26704d	-0.16253777
27	0x3f7b596f	0.9818334
28	0xbf3e7223	-0.7439291
29	0x3e8b9c36	0.27267617
30	0xbe4a1ca5	-0.1973749
31	0xbecd3576	-0.4007985
32	0x3f722a05	0.94595367
33	0xbee33813	-0.4437872
34	0xbf2b4b72	-0.66911995
35	0xbea72a3e	-0.32649416
36	0xbec11fcc	-0.37719572
37	0xbf121662	-0.57065403
38	0xbf532ee5	-0.8249343
39	0xbf9ce0ec	-1.2256141
40	0xbdb345f9	-0.087535806
41	0x3e53880f	0.20657371
42	0x3f426188	0.7593007
43	0x3f134ad3	0.5753605
44	0x3d5fc797	0.054633703
45	0x3e8dfb57	0.2773082
46	0xbee78ad8	-0.45223117
47	0xbf4cadc3	-0.7995264
48	0xbf804c5e	-1.0023305
49	0xbde0b6f0	-0.109723926
50	0xbc6653dc	-0.01405808
51	0xbe387ae4	-0.18015629
52	0x3f04d51c	0.5188768
53	0x3f3c3fef	0.73535055
54	0xbf5e11dc	-0.86746
55	0xbd8c4109	-0.06848342
56	0xbe65b1cf	-0.2243111
57	0xbe5238de	-0.20529506
58	0x3ece57a0	0.40301228
59	0x3ee6fec4	0.45116246
60	0x3e13732c	0.14399403
61	0x3f1e9f16	0.61961496
62	0xbf578414	-0.8418591
63	0x3ec16e1a	0.37779313
64	0xbf603390	-0.8757868
65	0x3e37b88d	0.17941494
66	0x3f34a2b8	0.7056079
67	0xbe42a2ab	-0.19007365
68	0x3f8c4a0e	1.09601
69	0xbeb12ace	-0.3460297
70	0xbf6d6716	-0.9273542
71	0xbf4865a1	-0.78280073
72	0x3f4ceefe	0.80052173
73	0xbee9c82c	-0.45660532
74	0x3f6ca865	0.9244445
75	0xbf6ba2ef	-0.9204549
76	0xbcf79b66	-0.030225467
77	0xbf1a06c5	-0.6016658
78	0xbcf97964	-0.030453391
79	0x3e6c47fa	0.23074332
80	0xbe889684	-0.26677334
81	0xbf1dca68	-0.6163697
82	0xbe8fe582	-0.28104788
83	0x3dde8098	0.10864371
84	0xbf410ed1	-0.75413233
85	0x3f78e62c	0.97226214
86	0xbf0984dc	-0.5371835
87	0x3ed227be	0.41045946
88	0xbc32ca90	-0.0109125525
89	0x3eea37df	0.4574575
90	0xbeb13cf5	-0.3461682
91	0x3f9927ed	1.1965309
92	0xbf18242d	-0.594302
93	0x3f8566a5	1.042195
94	0xbf447114	-0.76735044
95	0xbf191260	-0.59793663

Add_33;convolution_9;convolution_23;Const_70 f4 [96]
0	0x3f79d50d	0.97590715
1	0x3e9c4025	0.30517688
2	0x3ea76cc6	0.32700175
3	0xc000f191	-2.014744
4	0x3edf8c6f	0.4366183
5	0x3f434a64	0.76285386
6	0x3f27f4f4	0.65608144
7	0xbd940b36	-0.07228701
8	0x3f56969d	0.8382357
9	0x3ec3b272	0.3822208
10	0xbe48a4dd	-0.1959414
11	0x3ff74f3e	1.9321058
12	0x3f230e1f	0.6369342
13	0x3f73c7c3	0.9522669
14	0x3f0bb7ae	0.5457715
15	0x3f91123d	1.1333691
16	0x3f404653	0.75107306
17	0x3fd1e990	1.6399403
18	0xbf1fc411	-0.6240855
19	0x3f6febd1	0.937192
20	0xbf89450b	-1.0724195
21	0x3d9f6802	0.0778351
22	0xbe859512	-0.26090294
23	0x3f1dfa2d	0.6170986
24	0xbd19c830	-0.03754443
25	0x3e6a27f5	0.22866805
26	0x3ef75272	0.48305088
27	0x3f116994	0.56801724
28	0x3cbbfe00	0.022948265
29	0xbec29c53	-0.3800989
30	0x3fe10b8b	1.7581648
31	0x3e1d17f4	0.15341169
32	0x3f4bea11	0.7965403
33	0x3f51c9ec	0.81948733
34	0xbf19e7ea	-0.601195
35	0x3f2a36f2	0.6649009
36	0x3bdd4008	0.006752018
37	0x3faf882b	1.371343
38	0xbf983233	-1.189032
39	0x3f8ad8be	1.0847394
40	0xbe8a1868	-0.26971745
41	0x3f05a76c	0.5220859
42	0x3f539237	0.8264498
43	0xbe6cb434	-0.23115617
44	0x3f0a06b6	0.5391649
45	0x3fb654ee	1.4244668
46	0x3f567282	0.83768475
47	0x3f2effe5	0.68359214
48	0x3f5c32f6	0.8601526
49	0x3fc13100	1.5093079
50	0xbe398acf	-0.18119358
51	0x3fa31cac	1.2743125
52	0x3f5e5c99	0.8686004
53	0x3e9de659	0.30839804
54	0x3e428a88	0.18998158
55	0xbef264af	-0.4734244
56	0xbd24e778	-0.04025981
57	0x3f5a0375	0.85161525
58	0xbdb93028	-0.09042388
59	0xbec92904	-0.39289105
60	0x3fc93f2f	1.5722407
61	0x3f293f44	0.6611216
62	0xbf7d408e	-0.9892663
63	0xbea54e85	-0.32286468
64	0x3ff33898	1.9001646
65	0x3e86afaf	0.2630591
66	0x3e759570	0.23982787
67	0xbf3f9361	-0.7483426
68	0x3f7ec305	0.99516326
69	0xbf948ebc	-1.1606059
70	0xbede91fb	-0.4347075
71	0xbf36e7d6	-0.71447504
72	0xbf19ba5c	-0.60049987
73	0x3fb7e54f	1.4366854
74	0xbd70973a	-0.05873797
75	0x3f48a4ad	0.78376275
76	0x3ff28f80	1.8950043
77	0xbf30dfba	-0.6909138
78	0xbe91b9c0	-0.28462029
79	0x3fde4043	1.7363361
80	0xbee7d5f4	-0.4528042
81	0x3e7cd770	0.24691558
82	0x3f3f04d0	0.7461672
83	0x3ee69cef	0.45041606
84	0x3f759644	0.9593241
85	0xbeb9f9d6	-0.36323422
86	0x3ef4a258	0.47780108
87	0x3f011be9	0.5043321
88	0xbf023964	-0.5086882
89	0x3f0c6f6c	0.54857516
90	0x3e802f74	0.25036204
91	0x3f3d74d0	0.74006367
92	0xbef47074	-0.47742045
93	0xbea5de9c	-0.323964
94	0xbcd0f308	-0.025506511
95	0xbfc821e2	-1.563534

Add_32;convolution;convolution_22;Const_68 f4 [24]
0	0x3fa31b4b	1.2742704
1	0x3fdee0cc	1.7412353
2	0x3e32724a	0.1742641
3	0xbddae6b0	-0.106885314
4	0x3fd38613	1.6525291
5	0xbeac99a2	-0.33710963
6	0x3f7983a5	0.974665
7	0x3fbb033a	1.461036
8	0x3e956a79	0.29182795
9	0x3f09ee2b	0.5387904
10	0x3ee326a3	0.44365415
11	0x3f9f5570	1.2447948
12	0x3f277437	0.65411705
13	0x3f6394c8	0.888989
14	0x3f8ad6d7	1.0846814
15	0x3f8b7a30	1.0896664
16	0x3f9de472	1.2335341
17	0x3fdaf0d9	1.7104751
18	0x3fdb0fc9	1.7114192
19	0x3f39fbb0	0.7264967
20	0x3edcbdf0	0.4311366
21	0x3f9469ff	1.1594847
22	0x4012e357	2.2951257
23	0x3f85ac46	1.0443199

Add_31;convolution;convolution_21;Const_66 f4 [24]
0	0x3f3381ae	0.7011975
1	0x3f001cb7	0.50043815
2	0x3ef95320	0.48696232
3	0x3e9a389b	0.30121312
4	0x3dbe44f9	0.09290499
5	0xbf82539f	-1.0181769
6	0xbe1521f8	-0.1456374
7	0x3d7e8c44	0.062145486
8	0xbed445c4	-0.41459477
9	0x3ef3cc24	0.47616684
10	0x3e31d4c2	0.17366317
11	0x3f902086	1.1259925
12	0x3f4e8cf4	0.8068383
13	0x3ed773f7	0.42080662
14	0x3da293c9	0.07938344
15	0x3fb76a99	1.4329406
16	0x3e529ce5	0.20567663
17	0x3f22069e	0.6329135
18	0x3f70424a	0.9385115
19	0x3e8f6ed2	0.28014237
20	0x3eff55ee	0.49870247
21	0xbed646cc	-0.4185089
22	0x3da001e5	0.07812861
23	0xbef365c4	-0.4753858

Add_30;convolution_9;depthwise_9;Const_64 f4 [96]
0	0x3f89f7e6	1.0778778
1	0xbf8b126d	-1.0864998
2	0xbe0dbe86	-0.1384221
3	0xbf027940	-0.5096626
4	0x3eedcd06	0.46445483
5	0xbeb2f3f8	-0.34951758
6	0x3e7cccfd	0.24687572
7	0x3f3e628a	0.7436911
8	0x3f27daa5	0.65568
9	0x3e753e72	0.23949602
10	0xbbf25380	-0.007395208
11	0xbe6d195e	-0.23154208
12	0xbde595e8	-0.11210233
13	0xbefe14d1	-0.49625257
14	0xbf9ad8ee	-1.2097452
15	0xbf03bf39	-0.5146366
16	0xbde8973c	-0.11356971
17	0x3e997e7c	0.29979312
18	0xbe3e1980	-0.18564415
19	0xbe4313a5	-0.19050463
20	0xbf427043	-0.7595255
21	0x3f2b15fc	0.6683042
22	0x3e82ec10	0.25570726
23	0xbf6f53cd	-0.93487245
24	0xbf0cba46	-0.5497173
25	0x3fbd1893	1.4773124
26	0xbee007f7	-0.43756077
27	0xbf0954d2	-0.5364505
28	0x3f359ae5	0.70939475
29	0xbe25ac94	-0.16179115
30	0xbe605f16	-0.21911272
31	0xbfac52a8	-1.3462725
32	0x3f4d29b5	0.80141765
33	0xbe89c236	-0.26905984
34	0xbf22782e	-0.6346463
35	0xbf308b5a	-0.68962634
36	0xbf77f612	-0.9685985
37	0x3dd97158	0.10617322
38	0x3d93dd20	0.072199106
39	0xbf15f742	-0.5858041
40	0x3d7188c1	0.05896831
41	0xbf0c25f2	-0.547454
42	0x3f80f216	1.0073879
43	0x3e82df72	0.255611
44	0x3eb0bc5f	0.34518716
45	0xbf6ca285	-0.92435485
46	0xbf52160b	-0.82064885
47	0xbefaacce	-0.48959965
48	0xbf4592c8	-0.77177095
49	0x3f240eb8	0.6408496
50	0x3eae4661	0.3403807
51	0xbf3ae87d	-0.73011
52	0xbf47e68d	-0.7808617
53	0x3e69c2ae	0.2282817
54	0x3f1765a1	0.5913945
55	0xbe952cd7	-0.29135773
56	0x3f0d7aad	0.55265313
57	0x3eaaddb6	0.33372277
58	0x3ed0d4ec	0.40787446
59	0x3e5daf5b	0.21648924
60	0x3e86748d	0.26260796
61	0xbeda59ee	-0.42646736
62	0xbcddd7fc	-0.027080528
63	0x3dc83e54	0.09777513
64	0xbfa56ef6	-1.2924488
65	0x3c0cf7ea	0.008604029
66	0x3e241369	0.1602303
67	0x3fbf8536	1.4962528
68	0x3faa43e9	1.3301975
69	0x3ee188e8	0.44049764
70	0x3e9d072c	0.30669534
71	0xbe3a7999	-0.18210448
72	0x3e1aae06	0.15105447
73	0xbe5c21dd	-0.21497293
74	0x3e991fbc	0.29907024
75	0x3ce52e90	0.027976304
76	0xbf01434e	-0.50493324
77	0xbf8b82e3	-1.0899318
78	0x3baf9360	0.0053581446
79	0xbee5ccce	-0.44882816
80	0xbd2eed90	-0.042707026
81	0x3e6b1cd5	0.22960217
82	0x3ee08b02	0.43856055
83	0x3e884d38	0.26621413
84	0x3eea1fd1	0.457274
85	0xbecf3586	-0.40470523
86	0xbce88674	-0.028384425
87	0xbed42ef1	-0.41442063
88	0xbf62ae7a	-0.8854748
89	0xbf5c8e78	-0.8615489
90	0x3eb9d843	0.36297807
91	0xbeeb56e1	-0.4596472
92	0x3edc7caa	0.4306386
93	0xbf1078a0	-0.5643406
94	0x3ec45461	0.38345626
95	0x3fb0971f	1.3796118

Add_29;convolution_9;convolution_20;Const_62 f4 [96]
0	0x3f4d2ae4	0.8014357
1	0xbf8c251e	-1.0948827
2	0x3dd8551c	0.10563108
3	0xc017a15a	-2.369223
4	0x3f056633	0.5210907
5	0x3e851284	0.2599069
6	0xbf2a89ce	-0.66616523
7	0xbf921a58	-1.141429
8	0x3f42d7a8	0.76110315
9	0x3faf3735	1.3688723
10	0x3eb67680	0.35637283
11	0x3ec7ac5c	0.38998687
12	0x3f9aab8a	1.20836
13	0x3de12263	0.10992887
14	0x3fbb2f22	1.4623759
15	0x3ffbdb88	1.9676371
16	0xbf4e13cf	-0.80498976
17	0x3ee722ea	0.45143825
18	0xbf311cf6	-0.69184816
19	0x3f3b3077	0.73120826
20	0xbfbe769a	-1.4879944
21	0x3ec116e1	0.37712768
22	0xbf8a8ba7	-1.0823869
23	0xbf8e6e8d	-1.1127487
24	0xc024ba2c	-2.573863
25	0xbf91160f	-1.1334857
26	0xbf9ccb0f	-1.2249469
27	0x3ddc37fa	0.10752864
28	0x3d1db742	0.038504846
29	0x3f4a9dd4	0.79147077
30	0xbea96a12	-0.33088738
31	0xbfc2d663	-1.5221676
32	0x3de19dc5	0.1101642
33	0x4005bddd	2.0897133
34	0xbf90523a	-1.1275094
35	0x3fc7f626	1.5621994
36	0xbfc13fac	-1.5097556
37	0x3f568398	0.83794546
38	0xbfcaa6f9	-1.5832206
39	0xbf532f0f	-0.8249368
40	0x3edfe09d	0.43726054
41	0xbf9b68ce	-1.2141359
42	0xbed4aaee	-0.4153666
43	0xbf5d3451	-0.86407954
44	0x3e1e4298	0.15455091
45	0x3d80b07c	0.06283662
46	0x3f411e45	0.7543681
47	0xbe06d9e1	-0.13169052
48	0xbf183f9e	-0.5947207
49	0xbdd544ee	-0.10413538
50	0x3f764aae	0.962077
51	0xbedebede	-0.43504995
52	0x3f89215d	1.0713307
53	0xbf04e584	-0.51912713
54	0x3f70cf05	0.94065887
55	0xbd8a5056	-0.06753604
56	0x3eee3f68	0.4653275
57	0xbec4aa03	-0.3841096
58	0xbf3f9eee	-0.7485188
59	0x3e91d7dd	0.28485003
60	0x3effe026	0.499757
61	0xbe093f95	-0.13403161
62	0x3d91d7b1	0.07121218
63	0xbe415ec7	-0.18883811
64	0x3f85a336	1.0440433
65	0xc00764e0	-2.115532
66	0x3e282956	0.16422018
67	0xbe6e42ea	-0.23267713
68	0x3f9b42b3	1.212973
69	0xbf343aa6	-0.7040199
70	0x3f20ae6f	0.62766165
71	0xbf2d5bfe	-0.67718494
72	0xbe454ff6	-0.19268784
73	0xbf7d90f4	-0.99049306
74	0xbe789c86	-0.24278459
75	0xbf9d96de	-1.2311666
76	0x3f752975	0.95766383
77	0x3d05e39e	0.032687776
78	0x3fc180ff	1.5117491
79	0xbfaf568c	-1.3698287
80	0xbf9aaf09	-1.2084666
81	0x3f416da3	0.7555792
82	0x3fa7cc6b	1.3109258
83	0xbedd9763	-0.4327956
84	0xbec26274	-0.3796574
85	0xbee07dd8	-0.4384601
86	0x3e3c0268	0.18360293
87	0x3f191e8f	0.59812254
88	0x3f708a04	0.93960595
89	0x3fa3c7d5	1.2795359
90	0x3f374604	0.7159121
91	0x3d67e73b	0.056617003
92	0xbf582b70	-0.8444128
93	0xbf84de78	-1.0380392
94	0x3fb1a512	1.38785
95	0x3f11dd20	0.56978035

Add_43;convolution_29;Const_90 f4 [20]
0	0xbe2b1707	-0.16708003
1	0xbe253168	-0.16132128
2	0x3e039617	0.12850223
3	0xbdbfc28d	-0.093632795
4	0xbd97e022	-0.07415797
5	0x3d0fbeec	0.035094187
6	0xbe2d953a	-0.16951457
7	0x3e66df12	0.22546032
8	0x3da8f1d4	0.0824925
9	0x3e3ec87c	0.18631166
10	0xbe04f828	-0.12985289
11	0xbe48d85d	-0.19613786
12	0x3e1afb8f	0.15135024
13	0xbe48796b	-0.19577567
14	0x3b22e85f	0.0024857742
15	0xbcc0af49	-0.023521082
16	0xbda87286	-0.082249686
17	0x3e23c0f8	0.1599158
18	0x3db91d29	0.09038765
19	0x3e676d17	0.22600208

Add_42;convolution_9;depthwise_13;Const_88 f4 [96]
0	0xbe17424a	-0.14771381
1	0x3e6c3f98	0.23071134
2	0x3dc3d6b6	0.09562437
3	0x3d015e5f	0.03158414
4	0x3e900c1f	0.28134248
5	0x800001e3	-6.77e-43
6	0x3c984fd0	0.018592745
7	0x3dfa38fd	0.12217901
8	0xbe143c47	-0.14476119
9	0xbb15d45c	-0.0022862172
10	0x3e008ca3	0.12553649
11	0x3d1028ec	0.035195276
12	0x3e1fcc6a	0.15605322
13	0xbcb699ef	-0.022290198
14	0x3e049ac1	0.12949659
15	0x3e82d749	0.25554875
16	0x3e685400	0.22688293
17	0x3ded47a0	0.11585927
18	0x3e9334e3	0.28751287
19	0x3e23600f	0.15954612
20	0x3cf0c40c	0.029390357
21	0xbdaf9724	-0.0857375
22	0x3d6ce2a8	0.057833344
23	0x3ac4de04	0.0015019779
24	0x3d91ab03	0.07112696
25	0x3a5ed844	0.0008500854
26	0x3ebc848e	0.3681988
27	0x3e62b7af	0.22140382
28	0x3d885320	0.0665648
29	0x3dee38d8	0.11631936
30	0x3e48164b	0.19539754
31	0xbcf0385a	-0.029323746
32	0x3ebda3b3	0.37038955
33	0x3de16cb1	0.11007059
34	0x3e7cc2f2	0.2468374
35	0x3e0a38d2	0.13498238
36	0x3d309e58	0.04311976
37	0x3e5c2bbd	0.2150106
38	0x3dda784d	0.10667477
39	0x3d6071a4	0.054795876
40	0x3dc2e2c1	0.09515906
41	0x3e784d8c	0.24248332
42	0x3e05df03	0.13073353
43	0x3df8722d	0.12131152
44	0x3e89c4e9	0.26908043
45	0xbcd1896d	-0.025578225
46	0x3e61da96	0.2205604
47	0x3e94f0e1	0.29090026
48	0x3ca233c0	0.019800067
49	0xbde2fd73	-0.11083498
50	0x3eaa7dca	0.33299094
51	0x3e510e2c	0.20415562
52	0x3e05389b	0.13009875
53	0x3d7d373d	0.061820257
54	0x3e83ab5a	0.25716668
55	0x3e17d821	0.1482854
56	0x3d37d5e9	0.044881735
57	0x3d8bd555	0.06827799
58	0x3df28d8b	0.118434034
59	0x3e7c3716	0.24630389
60	0x3da9d923	0.08293369
61	0x3e205c46	0.156602
62	0x3e7ea139	0.24866189
63	0xbb9c6407	-0.0047726664
64	0x3ea0c2ac	0.31398523
65	0xbe4b879b	-0.19875948
66	0x3e2886be	0.1645765
67	0x800002e8	-1.043e-42
68	0x3ebde3a2	0.37087733
69	0xbcf7c0e0	-0.030243337
70	0x3d9afb8a	0.075675085
71	0x3df95809	0.121749945
72	0x3d0035d5	0.03130134
73	0xbe1f4585	-0.15553863
74	0x3ee90ca0	0.45517445
75	0xbe3a18f5	-0.18173583
76	0x3deb04a3	0.11475494
77	0xbcdaae6f	-0.026694505
78	0x3ea2b783	0.31780633
79	0x3e362da5	0.1779085
80	0x3e966955	0.29377237
81	0xbd3e80e6	-0.046509646
82	0x3e96041b	0.29300007
83	0x3d81da1f	0.063404314
84	0x3e8adf32	0.2712341
85	0x3e89e802	0.2693482
86	0x3e0333a5	0.1281267
87	0x3bc1e719	0.0059174416
88	0xbd162ce0	-0.03666389
89	0xbd957ef9	-0.07299609
90	0x3ddbb486	0.107277915
91	0x3e295825	0.1653753
92	0x3e266eab	0.16253154
93	0xbe09f171	-0.13471009
94	0x3da0ef16	0.07858102
95	0x3dd1d1fd	0.1024513

Add_41;convolution_28;Const_86 f4 [4]
0	0xbdf3fd1a	-0.1191351
1	0xbbaf3f28	-0.005348105
2	0xbc885ffb	-0.01664733
3	0xbe4a87f6	-0.19778427

Add_40;convolution_9;depthwise_12;Const_84 f4 [96]
0	0x3c00900a	0.007846842
1	0x3cd73f52	0.02627531
2	0x3ec8c309	0.392113
3	0x3cdf30e5	0.027244994
4	0x3e2d78fd	0.16940685
5	0xbdeba20e	-0.11505519
6	0xbeabeebc	-0.33580577
7	0x3da9756d	0.0827435
8	0x3b0c59e8	0.0021415893
9	0xbd9f6d5d	-0.07784531
10	0x3d49618d	0.049165297
11	0x3df18533	0.11792984
12	0x3ee9e5ff	0.45683286
13	0x3dc3977f	0.0955038
14	0xbe18092c	-0.14847249
15	0xbdfcdcc1	-0.12346793
16	0xbd81c94b	-0.06337222
17	0x3cdd055a	0.02698009
18	0x3d6f5723	0.05843271
19	0xbe872e15	-0.26402345
20	0x3e1b3e91	0.15160586
21	0x3e26230c	0.16224307
22	0xbe23b864	-0.15988308
23	0x3e871c32	0.263887
24	0x3d4a7820	0.049430966
25	0xbdf11bfe	-0.11772917
26	0x3e91990f	0.28437087
27	0xbd0b5a92	-0.03402192
28	0xbddab81e	-0.10679649
29	0xbdb4c7c8	-0.08827168
30	0x3d9b637e	0.07587336
31	0x3ec428c7	0.3831236
32	0xbd24abe0	-0.040202975
33	0xbd5403f5	-0.051761586
34	0x3d8d00fb	0.06884953
35	0xbdc4fbba	-0.096183255
36	0xbd8cd460	-0.06876445
37	0x3e1b947f	0.15193366
38	0xbe976e60	-0.29576397
39	0xbd8285f5	-0.063732065
40	0x3c2d1986	0.010565167
41	0xbd947bd3	-0.0725018
42	0xbdab5de7	-0.0836752
43	0x3d51a877	0.05118605
44	0x3ea1d07f	0.31604382
45	0xbd2128a0	-0.039345384
46	0x3de92667	0.11384278
47	0x3d80091f	0.0625174
48	0xbe29becc	-0.1657669
49	0x800003b0	-1.323e-42
50	0xbc6bd1d5	-0.01439329
51	0xbdc3c483	-0.09558966
52	0x800000ca	-2.83e-43
53	0x3e3976d7	0.1811174
54	0x3e9c14d6	0.30484647
55	0xbe7860e8	-0.24255717
56	0x3dd6edbf	0.10494565
57	0xbe53b84d	-0.20675774
58	0x3e1eb960	0.15500402
59	0x3c90d8a6	0.017681431
60	0xbc6d71af	-0.014492436
61	0x3ccd0653	0.02502743
62	0x3e777962	0.24167398
63	0xbd7c71a8	-0.06163183
64	0xbd1a47ff	-0.037666317
65	0x8000013e	-4.46e-43
66	0x3c0cf3f9	0.0086030895
67	0xbe71f978	-0.23630321
68	0x3c70d41c	0.014699008
69	0x3d858b1b	0.06520673
70	0xbd027074	-0.031845525
71	0x3d1f42e7	0.038882162
72	0xbe779db6	-0.24181256
73	0x3e197236	0.14984974
74	0x3daa892c	0.08326945
75	0x3efeeb93	0.49789104
76	0x3dcc2af0	0.09969127
77	0xbd639068	-0.05555764
78	0x3e0ddfa1	0.13854839
79	0xbd60c2ec	-0.054873392
80	0x3d353283	0.044237625
81	0x3e142cff	0.1447029
82	0xbba8cfd8	-0.00515173
83	0x3e5ffdd4	0.21874171
84	0x3e7b3657	0.24532448
85	0x3e966208	0.29371667
86	0xbdb4de69	-0.08831484
87	0xbb98529a	-0.0046485187
88	0xbe314510	-0.17311502
89	0x3e4540e5	0.19263037
90	0xbde2dc84	-0.11077216
91	0x3de5908d	0.112092115
92	0x3d936eba	0.07198854
93	0x3d496298	0.049166292
94	0x3e941210	0.2892003
95	0xbe701463	-0.23445277

Add_39;convolution_27;Const_82 f4 [8]
0	0xbda1502c	-0.0787662
1	0x3ce4d9b3	0.027935838
2	0xbe1ec789	-0.15505804
3	0x3ca6e670	0.020373553
4	0xbd8f6611	-0.070018895
5	0xbdeb4903	-0.11488535
6	0xbde8b39d	-0.113623835
7	0xbdbb29f0	-0.09138858

Add_38;convolution_9;depthwise_11;Const_80 f4 [96]
0	0xbd5893f9	-0.052875493
1	0x3c2f38a2	0.010694655
2	0x3dc18cf3	0.09450712
3	0xbbd637d3	-0.0065374165
4	0x3eb1d54d	0.34733048
5	0xbd299435	-0.041401107
6	0xbd95c197	-0.07312315
7	0x3e8670a8	0.26257825
8	0x3e52d625	0.20589502
9	0xbc75855f	-0.014985411
10	0x3b1901b3	0.002334696
11	0x3c0ec552	0.008714037
12	0x3dcfeeb7	0.10152953
13	0xbdfa88b7	-0.122331075
14	0x3d78a426	0.06070342
15	0x3cec1794	0.028819837
16	0xbb6623e0	-0.0035116598
17	0x3bc74716	0.006081472
18	0x3dc892a2	0.09793593
19	0x3d10dbf4	0.035366014
20	0x800001aa	-5.97e-43
21	0x3dc35a2d	0.09538684
22	0x3d825d3a	0.06365438
23	0x3bc0970d	0.0058773817
24	0x3e4ef58d	0.20210858
25	0x3ee9171f	0.45525452
26	0x3eaaea3b	0.3338183
27	0x3db790cb	0.08963164
28	0x3c46e1bc	0.01213878
29	0xbdb4b10d	-0.08822832
30	0x3c147727	0.009061611
31	0xbc989853	-0.018627321
32	0x3d554fa6	0.05207791
33	0xbceb99a9	-0.028759794
34	0x80000112	-3.84e-43
35	0x3c4cf733	0.012510109
36	0xbb88d99a	-0.0041763308
37	0xbd3b3dff	-0.04571342
38	0x3d92d6a5	0.071698464
39	0xbdecb82e	-0.11558567
40	0x3d8af187	0.06784349
41	0x3e5bad89	0.21452917
42	0x3d267fde	0.040649287
43	0x3de745cd	0.1129261
44	0xbd21fe3c	-0.039549097
45	0x3d43248f	0.047642287
46	0xbe272f50	-0.16326642
47	0x3e3535b0	0.17696261
48	0x3db719ac	0.089404434
49	0xbd079efc	-0.033110604
50	0x3ea32378	0.31862998
51	0xbd807970	-0.06273162
52	0x3d1d82b1	0.038454715
53	0x3dba98c2	0.091111675
54	0x3ec56eb1	0.38561013
55	0xbe43d05d	-0.19122453
56	0xbb212ac8	-0.002459215
57	0xbc17f82a	-0.0092754755
58	0xbd134aac	-0.035959885
59	0x3e4d7e3d	0.20067687
60	0x3c8071ca	0.015679259
61	0x3e8d6074	0.2761265
62	0x3c17ef5b	0.009273375
63	0x3d9b8ee9	0.07595617
64	0x3e7f408e	0.2492697
65	0x3de39f1a	0.111143306
66	0x3e953b4c	0.29146802
67	0x3de039d6	0.10948531
68	0x3e160891	0.14651705
69	0xbc8d4530	-0.017244905
70	0x3e1b918f	0.15192245
71	0x3e35e891	0.17764498
72	0xbe0b909a	-0.1362938
73	0x3d845125	0.064607896
74	0x3e035bbb	0.12827961
75	0xbd59cd4d	-0.053174306
76	0x3e245b8f	0.16050552
77	0x3ec5a61f	0.38603303
78	0x3df69cdd	0.12041638
79	0x3e314b60	0.1731391
80	0x3f0dd0e0	0.5539684
81	0x3c04c1fc	0.00810289
82	0x3e8a63b0	0.2702918
83	0x3df31f9b	0.11871263
84	0xbd5e58a4	-0.054283753
85	0x3d4ebdc2	0.050473936
86	0x3d9df4a4	0.07712677
87	0x3cb6eafb	0.022328844
88	0x80000063	-1.39e-43
89	0x3dc5cfa6	0.096587464
90	0x80000234	-7.9e-43
91	0x3e2920d3	0.16516428
92	0x3eb52cba	0.35385686
93	0xb9673c1d	-0.0002205227
94	0x3e13af44	0.14422327
95	0x3e135117	0.14386402

Add_28;convolution_9;convolution_19;Const_60 f4 [96]
0	0x3f21f54a	0.63264906
1	0x3f32178e	0.6956719
2	0x3f1086b6	0.5645555
3	0xbe3e5bd4	-0.18589717
4	0xbe47a9ec	-0.19498414
5	0x3f1c653e	0.61091983
6	0xbe47f808	-0.1952821
7	0x3ed7c762	0.42144305
8	0x3ee7914e	0.45228046
9	0x3e087093	0.13324194
10	0xbda0309a	-0.0782177
11	0xbe12b986	-0.14328584
12	0xbe5db9cd	-0.21652909
13	0x3eb57fe6	0.3544914
14	0x3f15f61e	0.5857867
15	0x3ebf65ff	0.37382504
16	0x3f70aed8	0.9401679
17	0x3ef34476	0.4751317
18	0x3f03b3bd	0.51446134
19	0xbd984dac	-0.0743669
20	0x3ea6f6a0	0.32610035
21	0x3f2e31ce	0.68044746
22	0xbf5d3bdd	-0.8641947
23	0x3efbb251	0.49159482
24	0xbf255df1	-0.6459647
25	0x3f17d0c4	0.59302926
26	0x3f490d08	0.7853551
27	0x3ea2fa85	0.31831756
28	0x3b0a5fc0	0.00211142
29	0xbd1ce41e	-0.038303487
30	0xbf5aaebc	-0.85422873
31	0x3f5e3606	0.86801183
32	0x3eeefb83	0.46676263
33	0x3e32e296	0.17469248
34	0x3ea41178	0.32044578
35	0xbe65dd7e	-0.22447774
36	0xbf21ab02	-0.6315156
37	0x3e3e64b8	0.18593109
38	0xbea9da4a	-0.33174354
39	0x3f2b9462	0.6702329
40	0x3e188c61	0.148973
41	0xbe96752c	-0.2938627
42	0x3efbfefa	0.4921797
43	0x3e292f83	0.1652203
44	0x3ecef2a1	0.40419486
45	0x3f0b0ccc	0.543164
46	0x3eb14722	0.34624583
47	0xbee290a0	-0.44250965
48	0x3e458aa0	0.19291162
49	0xbf2a9cd0	-0.66645527
50	0xbeccc1d6	-0.39991635
51	0x3e6384b5	0.22218592
52	0x3d9e6de8	0.07735807
53	0x3ea62b37	0.32454845
54	0x3d9cdf94	0.07659832
55	0xbd804628	-0.06263381
56	0xbec07500	-0.37589264
57	0xbd6178be	-0.05504679
58	0x3e5b37a6	0.21407947
59	0x3f42f572	0.7615577
60	0x3ea358bf	0.31903645
61	0x3f2b24c4	0.66852975
62	0xbefecd0e	-0.4976582
63	0x3f2f8a0b	0.6857001
64	0x3e3aae8e	0.1823065
65	0xbf0f4f56	-0.5598043
66	0x3e883b9d	0.2660798
67	0x3e416016	0.1888431
68	0xb9449f00	-0.00018751249
69	0x3d493f36	0.04913255
70	0xbebe914c	-0.37220228
71	0xbf1acede	-0.60471904
72	0x3db8e8d2	0.09028782
73	0x3ea3f62d	0.32023755
74	0x3fe7fdd6	1.812434
75	0x3e87b848	0.26507783
76	0xbd457fda	-0.048217632
77	0x3ec508f9	0.38483408
78	0xbf2e84c2	-0.6817132
79	0x3eb933cd	0.36172333
80	0xbeb6b273	-0.3568302
81	0xbec5e90a	-0.38654357
82	0xbed4c571	-0.41556886
83	0x3e072717	0.13198505
84	0x3f62f10a	0.88649046
85	0x3f81e042	1.0146563
86	0x3f014e73	0.5051033
87	0x3e574c44	0.21025187
88	0x3ed91a6e	0.42402977
89	0xbda1a87e	-0.078934655
90	0x3f145d52	0.57954895
91	0x3ea95bcc	0.33077848
92	0xbd86500d	-0.06558237
93	0xbeb9be83	-0.3627816
94	0xbd786077	-0.06063887
95	0xbf098d9b	-0.537317

Add_27;convolution;convolution_18;Const_58 f4 [24]
0	0x3f8e7627	1.1129807
1	0x3f4c12e7	0.7971634
2	0x3f18a99a	0.5963379
3	0x3fd27cb3	1.6444305
4	0x3f550af1	0.8321982
5	0x3f407c68	0.7518983
6	0x3ec027a3	0.3753024
7	0x3fcefd7a	1.6171105
8	0xbe791f20	-0.2432828
9	0x3f3a2516	0.7271284
10	0x3f19abd5	0.6002782
11	0x3f9ab2da	1.2085831
12	0x3f5370ec	0.8259418
13	0xbe15af76	-0.14617714
14	0x3fa29bd1	1.2703801
15	0x3fdaddfc	1.7098994
16	0x3f5b7e16	0.85739267
17	0x3f08c5de	0.5342692
18	0x3f411847	0.7542767
19	0x3d901902	0.0703602
20	0x3f7946b7	0.9737353
21	0x3f738b35	0.9513429
22	0x3f3e2360	0.7427273
23	0x3ecc935a	0.3995617

Add_26;convolution;convolution_17;Const_56 f4 [24]
0	0x3f7e9856	0.99451196
1	0xbec61e48	-0.38694978
2	0xbffc171e	-1.9694555
3	0x3f433d02	0.76264966
4	0x3f954769	1.1662418
5	0x3c82b180	0.01595378
6	0x3f075bd2	0.5287448
7	0x3efb2cfc	0.49057758
8	0x3f29dca7	0.66352314
9	0x3e99886b	0.2998689
10	0x3faf336b	1.3687567
11	0xbee0adcf	-0.43882605
12	0xbeb12a35	-0.34602514
13	0xbe8a9600	-0.27067566
14	0x3eabc529	0.3354886
15	0x3cc4c204	0.024018295
16	0xbe6051d6	-0.21906218
17	0x3f55e37a	0.83550227
18	0xbf0ecc78	-0.55780745
19	0xbeed0866	-0.4629547
20	0xbe375e4e	-0.17907068
21	0xbec12f86	-0.3773157
22	0xbe501d60	-0.20323706
23	0x3e300f4c	0.17193335

Add_25;convolution_9;depthwise_8;Const_54 f4 [96]
0	0xbe2d1212	-0.16901425
1	0x3ee96376	0.45583695
2	0xbdf3cb90	-0.11904061
3	0xbe7dfa77	-0.24802576
4	0xbd877c6a	-0.06615527
5	0xbf3864db	-0.72028893
6	0xbf333f8b	-0.70018834
7	0xbddede9f	-0.10882305
8	0x3dfffe04	0.124996215
9	0x3f9d6738	1.2297125
10	0xbedf0c46	-0.4356405
11	0xbe64055b	-0.22267668
12	0x3e6d93fb	0.23200981
13	0xbe35adb9	-0.17742051
14	0xbf53f937	-0.82802147
15	0x3f6d55f8	0.927093
16	0x3ef8feb3	0.4863182
17	0x3e55899a	0.20853272
18	0xbf1b52ac	-0.6067302
19	0xbe732cb9	-0.23747529
20	0xbe9d5df4	-0.30735743
21	0xbfce7fc5	-1.6132742
22	0xbf723cad	-0.94623834
23	0x3e793ad2	0.24338844
24	0xbf8d3d7f	-1.1034392
25	0xbf3c3b56	-0.7352804
26	0x3f8fef26	1.1244857
27	0x3e90fedc	0.28319442
28	0xbee03049	-0.4378684
29	0x3e1724ef	0.14760183
30	0x3fad0115	1.3515955
31	0x3f3c385a	0.73523486
32	0xbee4bd4a	-0.44675666
33	0xbf261b8a	-0.6488577
34	0xbfa0dfc5	-1.2568289
35	0xbf7f4428	-0.99713373
36	0x3efa9819	0.48944166
37	0xbd8be5a3	-0.06830909
38	0x3fb20c2c	1.3909965
39	0xbe60f3a8	-0.21967947
40	0xbf1054e4	-0.5637953
41	0xbeae940a	-0.3409732
42	0x3f14417d	0.5791243
43	0x3f4cfa48	0.800694
44	0xbfcb132a	-1.5865223
45	0xbf3d9acc	-0.74064326
46	0xbf4e3210	-0.8054514
47	0x3f9b0eeb	1.2113928
48	0xbfd8abcb	-1.6927427
49	0xbf0e777c	-0.5565107
50	0x3fb341a8	1.4004412
51	0xbf8d2096	-1.102557
52	0xbd37ffe5	-0.044921774
53	0xbf9f67a1	-1.24535
54	0x3f4b0d0e	0.79316795
55	0xbf54c9f9	-0.83120686
56	0x3ebf1b08	0.3732531
57	0xbf70d62e	-0.9407681
58	0xbf1999e4	-0.60000443
59	0xbfaf0fff	-1.3676757
60	0xbf94f01e	-1.1635778
61	0xbfb923ce	-1.4464052
62	0x3c8aaf08	0.016929165
63	0x3f0f4a48	0.5597272
64	0xbf50544f	-0.81378645
65	0x3f7631e3	0.9616987
66	0x3f0c9b5f	0.5492458
67	0xbe9f5f36	-0.31127328
68	0x3fc9df4a	1.5771267
69	0xbf93cfc5	-1.1547781
70	0xbd369701	-0.044577602
71	0xbea3ae78	-0.31969047
72	0x3f6de8cd	0.9293335
73	0xbfc79ec8	-1.5595331
74	0xbfc326e1	-1.524624
75	0xbf21d095	-0.63208896
76	0xbf24234e	-0.6411637
77	0x3f5041a6	0.8135017
78	0xbf7c3c59	-0.98529583
79	0x3eb518ec	0.35370576
80	0xbfcbb5ba	-1.5914834
81	0xbf117fd5	-0.5683568
82	0xbf3289df	-0.69741625
83	0x3f9bbcd4	1.2167001
84	0x3e821ef6	0.25414246
85	0xbfc83df6	-1.5643909
86	0x3ff29e20	1.8954506
87	0xbf3d41cf	-0.7392854
88	0xbeca34f0	-0.39493513
89	0xbf9f9764	-1.2468076
90	0xbc84d770	-0.01621601
91	0xbfa4538f	-1.2838
92	0xbf41a9ad	-0.7564953
93	0x3fd555d1	1.6666814
94	0xbf3ab55f	-0.72933
95	0x3f301ad4	0.68790936

Add_24;convolution_9;convolution_16;Const_52 f4 [96]
0	0x3f91683b	1.1359934
1	0xbe9eeaf8	-0.31038642
2	0x3f5960af	0.8491315
3	0x3f68918d	0.9084709
4	0x3fcb4ebc	1.5883403
5	0x3fa18c20	1.2620888
6	0xbf63c140	-0.8896675
7	0xbe2d043e	-0.1689615
8	0x3f258de9	0.6466966
9	0xbf4a1320	-0.7893543
10	0x3eea2c5d	0.45736971
11	0xbe9b58c0	-0.30341148
12	0x3edbc329	0.42922333
13	0x3dfcfa38	0.12352413
14	0x3e1ab51a	0.15108147
15	0x3fe5fd37	1.79679
16	0x3f9554a2	1.1666453
17	0x3f040900	0.5157623
18	0x3f3d2bd4	0.73895
19	0x3e87424b	0.26417765
20	0xbf29e18c	-0.6635978
21	0xbf0cec93	-0.55048484
22	0xbf5f015a	-0.8711144
23	0x3daa487c	0.083146065
24	0x3f8e3234	1.1109071
25	0x3f2655f4	0.64974904
26	0x3f6560fc	0.8960111
27	0x3e6143f2	0.21998575
28	0x3fde8672	1.738478
29	0x3fd8fac8	1.6951532
30	0x3f8a8187	1.0820779
31	0x3f77644b	0.9663741
32	0x3eec4a79	0.46150568
33	0xbf54a358	-0.8306174
34	0x3f39c8a9	0.7257181
35	0xbed2634b	-0.4109138
36	0xbebd0d60	-0.36924267
37	0x3f56f2c4	0.8396418
38	0x3ea955e4	0.33073342
39	0x3f916099	1.1357604
40	0x3e8bd307	0.2730944
41	0x3db8919e	0.09012149
42	0xbeff3aff	-0.49849698
43	0xbe8e435c	-0.27785766
44	0x3f303a0e	0.68838584
45	0x3f1e4559	0.61824566
46	0xbe7ee772	-0.24892977
47	0x3f90b893	1.1306328
48	0x3f501b6a	0.8129183
49	0x3ea1082d	0.3145155
50	0xbf478d74	-0.77950215
51	0x3e361f24	0.17785317
52	0x3e34eaf7	0.17667757
53	0x3e6e7dad	0.23290129
54	0x3f6b901a	0.92016757
55	0xbef98d00	-0.48740387
56	0xbd333a12	-0.043756552
57	0xbd8a369e	-0.06748699
58	0xbf32ac7e	-0.6979445
59	0xbe88f2d1	-0.26747754
60	0xbf2646f9	-0.64952046
61	0x3f8f50b6	1.1196506
62	0xbedc6cb5	-0.43051687
63	0xbe512972	-0.20425966
64	0x3e825e60	0.25462627
65	0x3f859d4c	1.0438628
66	0xbefe104d	-0.49621812
67	0xbe9fef43	-0.3123723
68	0x3e8e279a	0.2776459
69	0x3f5ecd8c	0.8703239
70	0xbe4cfcfd	-0.20018382
71	0x3e0c6b03	0.13712697
72	0xbf281264	-0.6565306
73	0xbf90f652	-1.1325171
74	0xbdaea92a	-0.08528359
75	0x3f0ea749	0.55724007
76	0x3fb35387	1.4009866
77	0xbf1bf802	-0.60925305
78	0x3f7e90d9	0.9943977
79	0x3ef2cf60	0.4742384
80	0x3ed884f5	0.42288938
81	0xbed80a97	-0.4219558
82	0x3fad64aa	1.3546345
83	0xbea2f4b9	-0.31827334
84	0xbe3df192	-0.18549183
85	0x3f7e3a09	0.99307305
86	0x3f7e9672	0.9944831
87	0xbe900053	-0.28125247
88	0xbe6fd9ec	-0.23422974
89	0x3f8c33bc	1.0953288
90	0x3f3a9ee5	0.72898704
91	0xbf3e3c8a	-0.74311125
92	0xbed290cc	-0.41126096
93	0xbf4193bd	-0.75616056
94	0x3ec2e085	0.3806192
95	0xbe41fe5e	-0.1894469

Add_23;convolution;convolution_15;Const_50 f4 [24]
0	0x3f989efc	1.1923518
1	0x3f37e403	0.71832293
2	0x3f8fdf78	1.1240072
3	0x3fe0c80e	1.7561052
4	0x3fd33f83	1.6503757
5	0x40201fc1	2.501938
6	0x3f2537fc	0.6453855
7	0x3f322469	0.6958681
8	0x3e57422b	0.21021335
9	0x3fa2fabe	1.273277
10	0x3f77147a	0.9651562
11	0x3fb81567	1.4381531
12	0x3f85dc9e	1.0457952
13	0xbe99e78a	-0.30059463
14	0xc047c652	-3.1214795
15	0x3fbdc6f6	1.4826343
16	0x3f8d7fa1	1.1054574
17	0x3fe508da	1.7893326
18	0x3fa6de1c	1.3036532
19	0x3f690a64	0.9103148
20	0x3fc51ed7	1.5400037
21	0x3f32359c	0.6961305
22	0x3f4a9b9b	0.79143685
23	0x3f5b20c5	0.8559688

Add_22;convolution;convolution_14;Const_48 f4 [24]
0	0x3f0f1c0a	0.5590216
1	0xc00e78de	-2.2261271
2	0x3f17d6b7	0.59312004
3	0xbedaeec4	-0.4276029
4	0xbe5ff81e	-0.21871993
5	0xbf320af2	-0.6954795
6	0x3f8ed06a	1.1157353
7	0x3ebfef02	0.37487036
8	0x3e5aaf7e	0.21356007
9	0x3ef45161	0.47718337
10	0x3f1670b8	0.58765745
11	0xbea4f160	-0.32215405
12	0x3ee81ff2	0.45336872
13	0x3e97b729	0.29631928
14	0x3ede309b	0.43396458
15	0x3f54009b	0.82813424
16	0x3f8faa0d	1.122377
17	0x3e41d5d0	0.18929219
18	0xbeb51b4a	-0.35372382
19	0x3f8302f4	1.0235276
20	0x3f9df59c	1.2340579
21	0xbe8d1b2b	-0.2755979
22	0x3f58cb94	0.84685636
23	0xbf55eede	-0.8356761

Add_21;convolution_9;depthwise_7;Const_46 f4 [96]
0	0xbebcc63d	-0.36869994
1	0xbf651ea2	-0.89499867
2	0x3f28e22f	0.6597013
3	0x3ee02347	0.43776914
4	0x3ec0875e	0.37603277
5	0x3f45efc2	0.77318966
6	0xbf3a8efd	-0.7287443
7	0x3f54f2f8	0.8318324
8	0xbf6f645a	-0.935125
9	0x3db13858	0.08653325
10	0xbf4b5e7d	-0.7944105
11	0xbf407b98	-0.7518859
12	0x3e9a3334	0.3011719
13	0x3f8e6e4e	1.1127412
14	0xbf86d353	-1.0533241
15	0xbf651d2c	-0.8949764
16	0xbeb3b170	-0.35096312
17	0xbf90e499	-1.1319762
18	0x3f0aed95	0.5426877
19	0x3ea5c0df	0.3237371
20	0xbf786872	-0.9703437
21	0x3f9b150a	1.2115796
22	0x3fb6f811	1.4294454
23	0x3f72a30d	0.94780046
24	0xbf58eef2	-0.847396
25	0xbfc1d61d	-1.5143467
26	0xbfa3d07d	-1.2798
27	0xbf8dda3a	-1.1082222
28	0x3d2c9430	0.04213351
29	0x3e2e7de0	0.17040205
30	0x3ee7807a	0.45215207
31	0xbe10c762	-0.14138559
32	0x3f74d2c1	0.95634085
33	0xbf824d9f	-1.0179938
34	0xbe4a6757	-0.19765984
35	0x3fc00062	1.5000117
36	0xbeaf4d3b	-0.3423861
37	0xbe26f103	-0.16302876
38	0xbf2591d5	-0.6467565
39	0xbf774961	-0.9659634
40	0xbf7aa168	-0.97902536
41	0x3fafbe5c	1.3729968
42	0xbf6391f8	-0.88894606
43	0xbfa326e3	-1.2746242
44	0xbfa27493	-1.2691826
45	0x3fbd2962	1.4778254
46	0x3efefa82	0.49800497
47	0xbd587504	-0.05284597
48	0xbfa29cee	-1.2704141
49	0xbfa7ba7c	-1.3103786
50	0xbd2f5a28	-0.04281059
51	0xbf4c1970	-0.79726315
52	0x3e0a7db6	0.13524517
53	0xbeae36b2	-0.34026104
54	0x3febe11a	1.842807
55	0x3f453972	0.7704078
56	0xbef21703	-0.47283182
57	0xbe52f5e5	-0.20601614
58	0x3ed088d3	0.4072939
59	0xbf85e07a	-1.045913
60	0x3e90c13c	0.28272426
61	0x3e921583	0.28532037
62	0x3fab6980	1.3391571
63	0xbeda7bb7	-0.42672512
64	0x3e7dd80b	0.24789445
65	0x3f7a2f25	0.97728187
66	0x3f5258ae	0.82166564
67	0xbf1eef06	-0.6208347
68	0x3effebd4	0.4998461
69	0xbf46f31b	-0.777147
70	0xbe53ecbe	-0.20695779
71	0x3eb4ebf9	0.35336283
72	0xbf8a2bd1	-1.0794622
73	0xbf9c9043	-1.2231525
74	0xbf8eedce	-1.1166322
75	0xbe15ddd8	-0.14635408
76	0xbe5bdbe6	-0.21470603
77	0xbf37f5ac	-0.7185924
78	0xbadb5ca0	-0.0016735978
79	0x3f791204	0.97293115
80	0x3f089694	0.53354764
81	0xbf574521	-0.8408986
82	0xbf6097a0	-0.8773136
83	0xbf22d0bf	-0.6359977
84	0x3f9a86a7	1.2072343
85	0xbeb2359d	-0.3480653
86	0xbf33def4	-0.70262074
87	0xbf831a37	-1.0242375
88	0x3f6225e8	0.8833909
89	0x3fbf0fba	1.4926674
90	0x3f0954e0	0.53645134
91	0x3f86b1d6	1.0523021
92	0xbfa81503	-1.3131412
93	0xbf6cf270	-0.9255743
94	0x3e83e3c3	0.25759706
95	0xbf8b5e3e	-1.0888135

Add_20;convolution_9;convolution_13;Const_44 f4 [96]
0	0x3f00523a	0.5012547
1	0xbe38283a	-0.17984095
2	0xbe81e640	-0.2537098
3	0x3f43d8cf	0.765027
4	0xbebe32d7	-0.37148163
5	0x3ea0aefe	0.31383508
6	0xbd5195cc	-0.051168248
7	0x3eea7072	0.45788914
8	0x3d15ed11	0.036603037
9	0xbf0be611	-0.5464793
10	0x3eba299d	0.36359873
11	0xbe54d1ab	-0.20783107
12	0x3fa8a6eb	1.3175939
13	0x3ee2481f	0.4419565
14	0x3ed84f23	0.42247877
15	0xbe12fa92	-0.14353397
16	0x3f4684bf	0.77546304
17	0xbd0a6ffe	-0.03379821
18	0x3f68acb7	0.9088854
19	0x3edff8ad	0.43744412
20	0xbfdfee35	-1.749457
21	0x3e900dc1	0.28135493
22	0xbe9e45da	-0.30912668
23	0x3f0afebf	0.5429496
24	0x3d03db86	0.032191776
25	0x3f856691	1.0421926
26	0x3f8379e3	1.0271572
27	0x3f12450e	0.5713662
28	0xbf13ff95	-0.5781186
29	0x3f104db7	0.56368583
30	0xbf6834c1	-0.90705496
31	0x3ec8e066	0.39233702
32	0x3efe337e	0.4964866
33	0x3f0e156c	0.5550144
34	0x3f76df9c	0.9643495
35	0xbf1d35a3	-0.6140997
36	0x3ed71b40	0.42012978
37	0x3ee6d437	0.45083782
38	0x3f39dd8d	0.72603685
39	0xbeb17a16	-0.34663457
40	0xbe7fee8e	-0.24993345
41	0x3dcca06b	0.09991535
42	0x3e438111	0.19092204
43	0x3eba42e3	0.36379156
44	0x3ee51393	0.44741496
45	0x3e97a852	0.29620606
46	0x3f9c5017	1.2211941
47	0x3e8e1516	0.27750462
48	0x3ebef15e	0.37293524
49	0xbf860a3f	-1.0471877
50	0x3cf577d8	0.029964373
51	0xbdd7cd9e	-0.10537265
52	0xbf2262fa	-0.63432276
53	0xbeb607ef	-0.35552928
54	0xbf4683cb	-0.7754485
55	0xbf14faf3	-0.5819542
56	0xbc64d4c0	-0.013966739
57	0x3f45a556	0.7720541
58	0xbdcebc11	-0.100944646
59	0x3c6ab658	0.014325701
60	0x3f19908e	0.599862
61	0x3e4e3d50	0.20140576
62	0x3eaa5f22	0.33275706
63	0x3e66cdba	0.22539416
64	0xbf88b81f	-1.0681189
65	0x3e362d79	0.17790784
66	0xbced9240	-0.029000401
67	0x3e8ef15e	0.27918524
68	0x3efc5c48	0.49289155
69	0x3f3b21a3	0.730982
70	0xbea7528e	-0.32680172
71	0xbe3001d4	-0.17188197
72	0xbef9485c	-0.48688018
73	0x3f34cdb0	0.70626354
74	0x3f5ce2ee	0.8628377
75	0x3f246fbe	0.64233005
76	0xbe24baa6	-0.16086826
77	0x3f1a66f7	0.6031336
78	0x3eca3998	0.39497066
79	0x3e7e600a	0.24841323
80	0xbf229fcb	-0.63525075
81	0xbd983285	-0.07431511
82	0x3f352a39	0.7076755
83	0x3dd9fe5f	0.106442206
84	0x3ea66ea8	0.325063
85	0x3f4067a4	0.75158143
86	0xbe54cbd9	-0.20780887
87	0x3e8d51c8	0.27601457
88	0x3f9e8c24	1.2386518
89	0xbf344c9a	-0.70429385
90	0x3f5f180d	0.87146074
91	0x3f2a2a2b	0.66470593
92	0x3eebe328	0.46071744
93	0x3f44b6e8	0.7684159
94	0xbe9676d6	-0.2938754
95	0x3ee56a44	0.44807637

Add_19;convolution;convolution_12;Const_42 f4 [24]
0	0x3edb38a5	0.42816654
1	0x3d02eace	0.03196221
2	0x3e3baafa	0.18326941
3	0x400710ed	2.110408
4	0x3f12844a	0.5723311
5	0x3f5e73e8	0.8689561
6	0x3f8be500	1.092926
7	0xbf4db3e0	-0.8035259
8	0x3fcd9eb6	1.606406
9	0x3f8fc9ff	1.1233519
10	0x3f54866c	0.8301761
11	0xbf6c17ea	-0.9222399
12	0x3f837b1b	1.0271944
13	0x3e0171b1	0.12641026
14	0x3f1b02eb	0.6055133
15	0x3e6fc446	0.23414716
16	0x3f63be8c	0.88962626
17	0xbe3e7abe	-0.1860151
18	0x3f34663f	0.70468515
19	0xbe8e67f5	-0.27813688
20	0xbdea87f2	-0.11451711
21	0x3f78e616	0.97226083
22	0x3f52592f	0.82167333
23	0x3f15cd6d	0.5851658

Add_18;convolution;convolution_11;Const_40 f4 [24]
0	0x3e2e96f6	0.17049775
1	0xbdc42e8d	-0.09579191
2	0xbf9ae9f2	-1.2102644
3	0x3ebea1c2	0.37232786
4	0x3f537bcb	0.8261077
5	0x3f41f88a	0.75769866
6	0xbd440de9	-0.04786483
7	0xbed174a4	-0.40909302
8	0x3f291997	0.6605467
9	0x3f2a85a9	0.666102
10	0xbf869f41	-1.051735
11	0x3ef14656	0.47123975
12	0xbf2b2e20	-0.66867256
13	0x3d7768a8	0.060402542
14	0x3e59fa78	0.21286952
15	0x3d2fe250	0.042940438
16	0xbe380b5d	-0.17973085
17	0x3f563d18	0.8368697
18	0x3f23ec0b	0.6403205
19	0x3efb959e	0.49137586
20	0x3f11f02e	0.5700711
21	0x3dea641c	0.114448756
22	0x3f32faac	0.69913745
23	0x3e987bc8	0.29781938
